graph(%boxes.9 : Float(3000, 4, strides=[4, 1], requires_grad=0, device=cuda:0),
      %offset.13 : Float(3000, 4, strides=[4, 1], requires_grad=0, device=cuda:0)):
  %291 : NoneType = prim::Constant()
  %111 : bool = prim::Constant[value=0]()
  %287 : float = prim::Constant[value=62.5]()
  %4 : int = prim::Constant[value=0]() # /home/jimyma/project/TensorSSA/FuncTs/benchmark/simpleops/offset2bbox/offset2bbox.py:12:30
  %13 : int = prim::Constant[value=1]() # /home/jimyma/project/TensorSSA/FuncTs/benchmark/simpleops/offset2bbox/offset2bbox.py:12:43
  %22 : int = prim::Constant[value=2]() # /home/jimyma/project/TensorSSA/FuncTs/benchmark/simpleops/offset2bbox/offset2bbox.py:12:56
  %31 : int = prim::Constant[value=3]() # /home/jimyma/project/TensorSSA/FuncTs/benchmark/simpleops/offset2bbox/offset2bbox.py:12:69
  %53 : float = prim::Constant[value=0.5]() # /home/jimyma/project/TensorSSA/FuncTs/benchmark/simpleops/offset2bbox/offset2bbox.py:15:17
  %70 : int = prim::Constant[value=4]() # /home/jimyma/project/TensorSSA/FuncTs/benchmark/simpleops/offset2bbox/offset2bbox.py:18:22
  %73 : float = prim::Constant[value=1.]() # /home/jimyma/project/TensorSSA/FuncTs/benchmark/simpleops/offset2bbox/offset2bbox.py:18:27
  %offset.1 : Float(3000, 4, strides=[4, 1], requires_grad=0, device=cuda:0) = aten::clone(%offset.13, %291)
  %boxes.1 : Float(3000, 4, strides=[4, 1], requires_grad=0, device=cuda:0) = aten::clone(%boxes.9, %291)
  %293 : Float(3000, 1, strides=[1, 1], requires_grad=0, device=cuda:0) = immut::slice(%boxes.1, %4, %291, %291, %13)
  %294 : Float(3000, strides=[1], requires_grad=0, device=cuda:0) = immut::select(%293, %13, %4)
  %296 : Float(3000, strides=[1], requires_grad=0, device=cuda:0) = immut::select(%293, %13, %13)
  %298 : Float(3000, strides=[1], requires_grad=0, device=cuda:0) = immut::select(%293, %13, %22)
  %300 : Float(3000, strides=[1], requires_grad=0, device=cuda:0) = immut::select(%293, %13, %31)
  %43 : Float(3000, strides=[1], requires_grad=0, device=cuda:0) = aten::sub(%298, %294, %13)
  %widths.1 : Float(3000, strides=[1], requires_grad=0, device=cuda:0)  = aten::add(%43, %13, %13)
  %49 : Float(3000, strides=[1], requires_grad=0, device=cuda:0) = aten::sub(%300, %296, %13)
  %heights.1 : Float(3000, strides=[1], requires_grad=0, device=cuda:0) = aten::add(%49, %13, %13)
  %55 : Float(3000, strides=[1], requires_grad=0, device=cuda:0) = aten::mul(%widths.1, %53)
  %ctr_x.1 : Float(3000, strides=[1], requires_grad=0, device=cuda:0) = aten::add(%294, %55, %13)
  %60 : Float(3000, strides=[1], requires_grad=0, device=cuda:0) = aten::mul(%heights.1, %53)
  %ctr_y.1 : Float(3000, strides=[1], requires_grad=0, device=cuda:0) = aten::add(%296, %60, %13)
  %301 : Float(3000, 1, strides=[1, 1], requires_grad=0, device=cuda:0) = immut::slice(%offset.1, %4, %291, %291, %13)
  %302 : Float(3000, 1, strides=[1, 1], requires_grad=0, device=cuda:0) = immut::slice(%301, %13, %4, %291, %70)
  %dx.1 : Float(3000, 1, strides=[1, 1], requires_grad=0, device=cuda:0) = aten::div(%302, %73) # /home/jimyma/project/TensorSSA/FuncTs/benchmark/simpleops/offset2bbox/offset2bbox.py:18:9
  %304 : Float(3000, 1, strides=[1, 1], requires_grad=0, device=cuda:0)  = immut::slice(%301, %13, %13, %291, %70)
  %dy.1 : Float(3000, 1, strides=[1, 1], requires_grad=0, device=cuda:0) = aten::div(%304, %73) # /home/jimyma/project/TensorSSA/FuncTs/benchmark/simpleops/offset2bbox/offset2bbox.py:19:9
  %306 : Float(3000, 1, strides=[1, 1], requires_grad=0, device=cuda:0) = immut::slice(%301, %13, %22, %291, %70)
  %dw.1 : Float(3000, 1, strides=[1, 1], requires_grad=0, device=cuda:0) = aten::div(%306, %73) # /home/jimyma/project/TensorSSA/FuncTs/benchmark/simpleops/offset2bbox/offset2bbox.py:20:9
  %308 : Float(3000, 1, strides=[1, 1], requires_grad=0, device=cuda:0) = immut::slice(%301, %13, %31, %291, %70)
  %dh.1 : Float(3000, 1, strides=[1, 1], requires_grad=0, device=cuda:0) = aten::div(%308, %73) # /home/jimyma/project/TensorSSA/FuncTs/benchmark/simpleops/offset2bbox/offset2bbox.py:21:9
  %112 : Float(device=cuda) = aten::tensor(%287, %291, %291, %111) # /home/jimyma/project/TensorSSA/FuncTs/benchmark/simpleops/offset2bbox/offset2bbox.py:24:39
  %113 : Float(device=cuda) = aten::log(%112) # /home/jimyma/project/TensorSSA/FuncTs/benchmark/simpleops/offset2bbox/offset2bbox.py:24:29
  %dw.5 : Float(3000, 1, strides=[1, 1], requires_grad=0, device=cuda:0) = aten::clamp(%dw.1, %291, %113) # /home/jimyma/project/TensorSSA/FuncTs/benchmark/simpleops/offset2bbox/offset2bbox.py:24:9
  %dh.5 : Float(3000, 1, strides=[1, 1], requires_grad=0, device=cuda:0) = aten::clamp(%dh.1, %291, %113) # /home/jimyma/project/TensorSSA/FuncTs/benchmark/simpleops/offset2bbox/offset2bbox.py:25:9
  %309 : Float(3000, 1, strides=[1, 1], requires_grad=0, device=cuda:0) = immut::slice(%widths.1, %4, %291, %291, %13)
  %137 : Float(3000, 1, strides=[1, 1], requires_grad=0, device=cuda:0) = aten::unsqueeze(%309, %13) # /home/jimyma/project/TensorSSA/FuncTs/benchmark/simpleops/offset2bbox/offset2bbox.py:27:22
  %138 : Float(3000, 1, strides=[1, 1], requires_grad=0, device=cuda:0) = aten::mul(%dx.1, %137) # /home/jimyma/project/TensorSSA/FuncTs/benchmark/simpleops/offset2bbox/offset2bbox.py:27:17
  %310 : Float(3000, 1, strides=[1, 1], requires_grad=0, device=cuda:0) = immut::slice(%ctr_x.1, %4, %291, %291, %13)
  %148 : Float(3000, 1, strides=[1, 1], requires_grad=0, device=cuda:0) = aten::unsqueeze(%310, %13) # /home/jimyma/project/TensorSSA/FuncTs/benchmark/simpleops/offset2bbox/offset2bbox.py:27:40
  %pred_ctr_x.1 : Float(3000, 1, strides=[1, 1], requires_grad=0, device=cuda:0) = aten::add(%138, %148, %13) # /home/jimyma/project/TensorSSA/FuncTs/benchmark/simpleops/offset2bbox/offset2bbox.py:27:17
  %311 : Float(3000, 1, strides=[1, 1], requires_grad=0, device=cuda:0) immut::slice(%heights.1, %4, %291, %291, %13)
  %161 : Float(3000, 1, strides=[1, 1], requires_grad=0, device=cuda:0) = aten::unsqueeze(%311, %13) # /home/jimyma/project/TensorSSA/FuncTs/benchmark/simpleops/offset2bbox/offset2bbox.py:28:22
  %162 : Float(3000, 1, strides=[1, 1], requires_grad=0, device=cuda:0) = aten::mul(%dy.1, %161) # /home/jimyma/project/TensorSSA/FuncTs/benchmark/simpleops/offset2bbox/offset2bbox.py:28:17
  %312 : Float(3000, 1, strides=[1, 1], requires_grad=0, device=cuda:0) = immut::slice(%ctr_y.1, %4, %291, %291, %13)
  %172 : Float(3000, 1, strides=[1, 1], requires_grad=0, device=cuda:0) = aten::unsqueeze(%312, %13) # /home/jimyma/project/TensorSSA/FuncTs/benchmark/simpleops/offset2bbox/offset2bbox.py:28:41
  %pred_ctr_y.1 : Float(3000, 1, strides=[1, 1], requires_grad=0, device=cuda:0) = aten::add(%162, %172, %13) # /home/jimyma/project/TensorSSA/FuncTs/benchmark/simpleops/offset2bbox/offset2bbox.py:28:17
  %176 : Float(3000, 1, strides=[1, 1], requires_grad=0, device=cuda:0) = aten::exp(%dw.5) # /home/jimyma/project/TensorSSA/FuncTs/benchmark/simpleops/offset2bbox/offset2bbox.py:29:13
  %pred_w.1 : Float(3000, 1, strides=[1, 1], requires_grad=0, device=cuda:0) = aten::mul(%176, %137) # /home/jimyma/project/TensorSSA/FuncTs/benchmark/simpleops/offset2bbox/offset2bbox.py:29:13
  %189 : Float(3000, 1, strides=[1, 1], requires_grad=0, device=cuda:0) = aten::exp(%dh.5) # /home/jimyma/project/TensorSSA/FuncTs/benchmark/simpleops/offset2bbox/offset2bbox.py:30:13
  %pred_h.1 : Float(3000, 1, strides=[1, 1], requires_grad=0, device=cuda:0) = aten::mul(%189, %161) # /home/jimyma/project/TensorSSA/FuncTs/benchmark/simpleops/offset2bbox/offset2bbox.py:30:13
  %203 : int[] = aten::size(%offset.1) # <string>:13:9
  %pred_boxes.1 : Float(3000, 4, strides=[4, 1], requires_grad=0, device=cuda:0) = aten::new_zeros(%offset.1, %203, %291, %291, %291, %291) # /home/jimyma/project/TensorSSA/FuncTs/benchmark/simpleops/offset2bbox/offset2bbox.py:32:17
  %211 : Float(3000, 1, strides=[1, 1], requires_grad=0, device=cuda:0) = aten::mul(%pred_w.1, %53) # <string>:3:9
  %213 : Float(3000, 1, strides=[1, 1], requires_grad=0, device=cuda:0) = aten::sub(%pred_ctr_x.1, %211, %13) # /home/jimyma/project/TensorSSA/FuncTs/benchmark/simpleops/offset2bbox/offset2bbox.py:34:26
  %315 : Tensor = immut::slice(%pred_boxes.1, %4, %291, %291, %13)
  %316 : Tensor = immut::slice(%315, %13, %4, %291, %70)
  %327 : Tensor = immut::assign(%316, %213, %111)
  %328 : Tensor = immut::slice_rev(%315, %327, %13, %4, %291, %70)
  %329 : Tensor = immut::slice_rev(%pred_boxes.1, %328, %4, %291, %291, %13)
  %227 : Tensor = aten::mul(%pred_h.1, %53) # <string>:3:9
  %229 : Tensor = aten::sub(%pred_ctr_y.1, %227, %13) # /home/jimyma/project/TensorSSA/FuncTs/benchmark/simpleops/offset2bbox/offset2bbox.py:36:26
  %318 : Tensor = immut::slice(%329, %4, %291, %291, %13)
  %319 : Tensor = immut::slice(%318, %13, %13, %291, %70)
  %332 : Tensor = immut::assign(%319, %229, %111)
  %333 : Tensor = immut::slice_rev(%318, %332, %13, %13, %291, %70)
  %334 : Tensor = immut::slice_rev(%329, %333, %4, %291, %291, %13)
  %245 : Tensor = aten::add(%pred_ctr_x.1, %211, %13) # /home/jimyma/project/TensorSSA/FuncTs/benchmark/simpleops/offset2bbox/offset2bbox.py:38:26
  %247 : Tensor = aten::sub(%245, %13, %13) # /home/jimyma/project/TensorSSA/FuncTs/benchmark/simpleops/offset2bbox/offset2bbox.py:38:26
  %321 : Tensor = immut::slice(%334, %4, %291, %291, %13)
  %322 : Tensor = immut::slice(%321, %13, %22, %291, %70)
  %340 : Tensor = immut::assign(%322, %247, %111)
  %341 : Tensor = immut::slice_rev(%321, %340, %13, %22, %291, %70)
  %342 : Tensor = immut::slice_rev(%334, %341, %4, %291, %291, %13)
  %263 : Tensor = aten::add(%pred_ctr_y.1, %227, %13) # /home/jimyma/project/TensorSSA/FuncTs/benchmark/simpleops/offset2bbox/offset2bbox.py:40:26
  %265 : Tensor = aten::sub(%263, %13, %13) # /home/jimyma/project/TensorSSA/FuncTs/benchmark/simpleops/offset2bbox/offset2bbox.py:40:26
  %324 : Tensor = immut::slice(%342, %4, %291, %291, %13)
  %325 : Tensor = immut::slice(%324, %13, %31, %291, %70)
  %351 : Tensor = immut::assign(%325, %265, %111)
  %352 : Tensor = immut::slice_rev(%324, %351, %13, %31, %291, %70)
  %353 : Tensor = immut::slice_rev(%342, %352, %4, %291, %291, %13)
  return (%353)
